pretrained_model/292.pth (torch, 61481 bytes, 23 tensors)

conv1.att_src f4 [1, 8, 8]
000000 17 57 f8 be 05 20 91 3e 4b ae f1 be 83 c8 84 3f
       -0.48503944 0.2834474 -0.47203287 1.0373691
000010 82 a6 8a be 5c 9d 2d 3f 49 62 f6 bd 1e 68 36 3e
       -0.2708016 0.67818236 -0.12030465 0.17813155
000020 f4 aa c2 be a7 07 1d 3f 18 36 80 be 93 15 f5 be
       -0.38021052 0.613398 -0.2504127 -0.47868022
000030 57 03 34 bf 94 07 c1 be c0 69 58 be 0f a8 43 be
       -0.70317596 -0.37701094 -0.2113409 -0.19107078
000040 fb a9 01 bd 13 dc f0 bd 3c d4 fa 3e 32 f4 84 be
       -0.031656247 -0.11760726 0.48990047 -0.25967556
000050 cb 68 eb 3e 26 ef 1d 3f 8d 97 d9 be eb b7 9b 3d
       0.45978388 0.61693037 -0.42498437 0.07603439
000060 d4 73 3d 3f b8 75 2a 3e 0d e5 0a 3f f0 55 d6 be
       0.74004865 0.16646469 0.54255754 -0.4186244
000070 8a 10 6f bf 5e 42 18 bf 9b e8 35 bf 66 2d 31 3e
       -0.9338461 -0.5947627 -0.7105805 0.17302474
000080 8d 18 8e be ba e8 3e 3f 04 7f 82 bd 1c 7a af 3e
       -0.27753106 0.7457386 -0.063718826 0.3427285
000090 f5 3f 8b bf 97 0b 4b bd 1d 11 e5 be 90 4f 91 bf
       -1.0878893 -0.0495716 -0.4473962 -1.1352406
0000a0 c2 7f c6 bd 8b 70 70 3e d1 46 c3 be 52 23 0e 3f
       -0.096923366 0.23480432 -0.38139966 0.55522645
0000b0 21 03 07 3f df f7 48 bd 18 1c 59 3e 4b bb 06 3f
       0.5273915 -0.049064513 0.21202123 0.52629536
0000c0 9f 57 59 be 4b e3 90 3e 92 ce 34 3f b7 7e 31 bf
       -0.21224831 0.2829841 0.706277 -0.69333977
0000d0 d5 f6 b8 3e e5 67 2d bd e4 5c b6 be 58 d2 29 bf
       0.36125818 -0.04233541 -0.35617745 -0.66336584
0000e0 4d 59 e5 3e ae 39 db be 7a 0b de be 3f b8 22 bf
       0.44794694 -0.42817444 -0.4336813 -0.6356239
0000f0 59 1c 10 bd ff fa 43 3c 33 4e 55 3d 7a 3c a9 be
       -0.035183284 0.011961698 0.05207653 -0.33053952

conv1.att_dst f4 [1, 8, 8]
000000 9a 98 3f bf 86 bb bc 3f 7d db 06 3f 11 93 85 3f
       -0.74842227 1.4744728 0.5267866 1.0435506
000010 4d 9a 4c be af 70 52 3f a3 2a 89 be d8 8d f1 be
       -0.19980736 0.8220319 -0.26790342 -0.4717853
000020 b5 44 9d bc 3e af f2 be 26 5d 4d be 37 df 74 bc
       -0.019197801 -0.47399324 -0.20055065 -0.014945797
000030 48 f2 bf 3e 2a 8e 07 bf a2 b0 04 bf a7 c5 30 3f
       0.37489533 -0.529513 -0.5183202 0.69051594
000040 f5 96 50 bf 5d 58 40 3e 68 0e a1 3e 18 2b 89 3e
       -0.8148034 0.18783708 0.31456304 0.2679069
000050 7f 61 a1 3f 2a 65 0e bf dc f0 42 be e4 2e f9 3e
       1.2607878 -0.55623114 -0.19037193 0.48668587
000060 34 60 0f 3e 7b 79 5b bf 2e 60 33 be fe 27 7f bf
       0.14001542 -0.8573224 -0.17517158 -0.996704
000070 e2 9b 04 be 7c b9 1b bf 6a 8a 13 3e b2 7c 95 3e
       -0.1295009 -0.608299 0.1440827 0.29196697
000080 87 0a 61 bf 6e 71 b4 be e7 3c a9 be 38 4a 72 be
       -0.8790669 -0.3524279 -0.33054277 -0.23661125
000090 b2 31 31 3d 7b d5 a3 3e bc d2 f8 3e b8 a9 2a be
       0.043260284 0.3199881 0.48598278 -0.16666305
0000a0 ea 89 5e bf ca a8 10 bf 26 46 42 3e a7 4a 3a 3f
       -0.8692919 -0.5650755 0.18972072 0.7277016
0000b0 56 b1 90 be ee ec c1 3e 5a 16 6f be 7d df 98 3e
       -0.28260297 0.37876076 -0.2334837 0.29858008
0000c0 38 31 11 be 6e 22 64 bf e6 9d 35 bf 00 34 75 bf
       -0.14178932 -0.89115036 -0.7094406 -0.9578247
0000d0 09 83 34 bf c6 03 7f be b1 39 24 be 0c 8c f0 3d
       -0.70512444 -0.24903783 -0.16037633 0.11745462
0000e0 f0 41 52 3d 52 7a 6a 3f 6f 59 1b bf 03 21 9f be
       0.051332414 0.91592896 -0.6068334 -0.31079873
0000f0 44 3b de bc 80 05 e3 be 6a 1a 19 3e 12 d8 04 bf
       -0.02712787 -0.44340134 0.14951482 -0.518922

conv1.bias f4 [64]
000000 d7 a2 ac bd 39 52 30 3d a2 03 95 bc 86 cd 89 3d
       -0.08429497 0.043047164 -0.018190209 0.067286536
000010 c0 ea a5 bc 53 91 13 3e 65 e7 05 3d 22 16 da 3d
       -0.02025354 0.14410906 0.03269138 0.10648753
000020 98 11 a5 bc 1a 11 5f 3c 76 b2 db 3d c0 f5 6b bd
       -0.02014999 0.013614917 0.10727398 -0.057607412
000030 c7 87 7f 3d 9d eb 26 3e cb 8c 47 3e 61 ec f6 bd
       0.062385347 0.16300817 0.19487302 -0.120568044
000040 92 69 53 bd 59 99 e7 3d 18 fb 24 3d 91 01 9a 3d
       -0.05161435 0.113085456 0.040278524 0.0751983
000050 a5 45 a4 3c 3b 85 df 3d 1c 45 eb bc 8f 61 95 3e
       0.02005274 0.109140836 -0.028719477 0.29175994
000060 9b c7 5d 3d 55 dd c1 3d af 8a f7 3c 9e 63 b3 3d
       0.054145437 0.09466044 0.030217497 0.08759235
000070 2f ee b2 3b 24 13 74 3d 9e ef eb bc 18 83 cb bd
       0.0054605226 0.059588566 -0.028800782 -0.099371135
000080 9e 6c 68 bd 25 af dd bd c3 28 c0 3d 10 39 b0 bd
       -0.05674421 -0.10824422 0.09382775 -0.08604634
000090 37 2c 7d 3e f6 3b 86 bd 52 97 a8 bd ff 94 e6 3d
       0.24723898 -0.065544054 -0.08231987 0.112588875
0000a0 29 48 84 bd 69 97 80 3d 3a f7 18 3b 85 a0 c0 3c
       -0.06459076 0.06278879 0.0023340718 0.023514042
0000b0 b0 2f eb 3c e5 ee 62 3d bc bd c5 bd 0f 1d 21 3c
       0.028709263 0.05540361 -0.096553296 0.009833588
0000c0 c7 9b 2c bd d0 b2 c5 3d 0e 14 9e 3d f4 a1 eb 3d
       -0.04214075 0.096532464 0.07718669 0.115054995
0000d0 81 20 13 3e 3c 78 b6 bb 82 83 75 3d 12 be 29 bc
       0.14367868 -0.0055685323 0.05993987 -0.010360258
0000e0 ba 04 03 bd 36 4c 95 bd 75 50 bb 3d 1c 4f bd 3a
       -0.03198693 -0.07289927 0.09146205 0.0014443132
0000f0 18 5a ce bd 99 a2 8c 3d 78 89 61 3c 06 11 b6 3d
       -0.10075778 0.068669505 0.013765685 0.08889966

conv1.lin_src.weight f4 [64, 4]
000000 dc af 86 3e 7b e6 54 be e8 3c 0b 3e f4 2f 9f 3e
       0.26306045 -0.20791046 0.13597453 0.31091273
000010 3d a0 cd be c8 7b d8 3d 46 f9 2c be 40 44 a6 be
       -0.40161315 0.105704844 -0.16891965 -0.32473946
000020 89 87 b3 3e d3 e9 b0 be 72 28 90 3d f2 f5 9b bd
       0.35064343 -0.34553394 0.07038964 -0.0761527
000030 7f 90 d2 be d7 63 7f 3e 32 d9 75 3e 55 0f e4 be
       -0.41125867 0.2494043 0.24008635 -0.44542947
000040 ac d3 92 3e 8a 5d 65 be 50 b5 61 be fb 2a b7 3b
       0.28677118 -0.22398964 -0.22041821 0.0055898405
000050 7d 32 40 3e bd 27 f2 3d af 13 89 be be aa 75 bf
       0.1876926 0.11823986 -0.2677283 -0.95963657
000060 1c 8a 80 be fe 5c bd 3e 0e ec 7d be 80 f3 c0 bd
       -0.2510537 0.3698501 -0.24797079 -0.09421444
000070 13 8c 36 3e 7d 9b 4e be f9 32 96 3e 09 42 b0 bd
       0.17826872 -0.20176502 0.29335764 -0.08606345
000080 4c 0b 17 be db 3e 31 3e cb b2 75 be 46 57 9b 3e
       -0.14750403 0.17309134 -0.23993985 0.30340022
000090 47 d6 9c 3e c9 fd 81 be ad 57 88 be 3d 1b 06 bf
       0.3063223 -0.25388935 -0.2662939 -0.5238531
0000a0 5f 0f ca be d7 87 9f bd a3 55 69 3d be 9f 10 be
       -0.39464852 -0.07789581 0.056966435 -0.14123437
0000b0 c8 77 8f bd bf a6 da 3e be e4 7d 3d 4e 4c 9e bd
       -0.07005268 0.42705342 0.061985724 -0.07729398
0000c0 fa f0 ce be 3c 2c 8f 3e d8 82 aa bd 93 82 1b bd
       -0.40418226 0.27963436 -0.08325738 -0.037966322
0000d0 91 32 f4 be 57 04 05 3f be c9 8b 3d a2 b8 0c be
       -0.4769483 0.5195975 0.06825589 -0.13742307
0000e0 cb bb 0e bf 80 d6 d1 bb 38 a0 6d 3e 70 ff da bd
       -0.557553 -0.006403744 0.2320565 -0.10693252
0000f0 fc 3f a3 bc da fe e3 bd df 37 65 3e 27 16 6a 3e
       -0.019927971 -0.111325935 0.22384594 0.22860013
000100 22 45 34 3e 32 95 bb be 8b 0e 63 3e 57 5c 99 3e
       0.17604497 -0.36637264 0.22173516 0.29953262
000110 b1 e8 70 3e 33 d5 e0 3e 22 5f 82 be 5b 7e 11 be
       0.23526265 0.43912658 -0.25463206 -0.14208357
000120 73 f4 55 be b8 47 d8 3e 9a 6b 21 be f3 a1 8d be
       -0.20894031 0.42242217 -0.15763703 -0.2766262
000130 bf 06 f1 3d 0f fa be 3e 7e 2b 8c be 85 dc ef bd
       0.11768865 0.37300155 -0.27376932 -0.11711983
000140 2f 5c c2 be 43 6d 23 3e 1b 71 85 3e ea 27 94 be
       -0.37960956 0.15959649 0.26062855 -0.28936702
000150 b9 42 0f be 4a 90 b2 3e c7 57 a8 3b 23 48 de bd
       -0.13990296 0.3487571 0.005137417 -0.10853603
000160 85 61 81 3e e4 a3 1b be 93 06 8a be 12 45 77 3d
       0.25269714 -0.15199238 -0.2695814 0.060368605
000170 85 76 ab 3e d9 09 02 be fd d8 e3 3d cb 14 f6 bd
       0.3348886 -0.12699069 0.111253716 -0.12015685
000180 d8 09 91 3e 96 91 0d 3e 6f ca 39 3e 4a 09 96 be
       0.28327823 0.13825068 0.18143629 -0.29303962
000190 2b f5 b9 bd 00 1c c4 3e 43 73 2b be db 39 9c be
       -0.09079965 0.38302612 -0.16743188 -0.3051289
0001a0 aa 57 b6 3e 55 30 c3 3e 4d 70 11 3e 00 d3 97 be
       0.35613757 0.38122812 0.14202996 -0.29653168
0001b0 32 0d 3b bf a3 01 1d 3f fb 57 23 be f5 59 21 bd
       -0.7306701 0.6133062 -0.1595153 -0.03939243
0001c0 6a 87 12 bf 16 a5 36 3f cd b0 2f 3e 92 d6 c2 3c
       -0.57237875 0.7134565 0.17157288 0.023783956
0001d0 0c 3d 30 bf bb be 11 3f f9 9d 38 be a2 14 37 3e
       -0.6884315 0.56931657 -0.18029012 0.17878965
0001e0 b0 31 f0 be 05 66 07 3f 5d 11 69 be 98 64 dc 3e
       -0.4691291 0.52890044 -0.2276053 0.43045497
0001f0 29 9e e5 bd 52 99 d5 3c bd f7 0d be 41 fc c3 3e
       -0.11211807 0.026074085 -0.13864036 0.38278392
000200 de a8 15 be e6 c7 dd be 86 c0 c2 bd 0f 4d 6c 3d
       -0.14615199 -0.43316573 -0.09509377 0.057690676
000210 fe 46 69 3d bd c9 1e bd 61 a2 f0 bc a4 5b 66 3e
       0.05695247 -0.03876661 -0.029374303 0.22495896
000220 fe c1 dd bd 8c 28 85 3e 8c 9e 88 3e eb fb bb bd
       -0.10828017 0.26007497 0.26683462 -0.09178909
000230 92 d2 a9 3d e3 86 c5 be 9a ab c2 bd 9a 26 46 3e
       0.08292116 -0.38579473 -0.09505387 0.19350663
000240 aa d5 b9 bd f4 d0 89 be 2e ae 43 3d 6e d0 76 bf
       -0.09073956 -0.2691723 0.047773533 -0.9641179
000250 8a b4 a9 3e 22 5d c6 be 67 69 6d 3e ea 97 9f 3e
       0.33145553 -0.3874293 0.23184739 0.3117059
000260 6b 88 40 3e b3 57 2d be fe 85 91 bd 2a 1b f0 3c
       0.1880204 -0.16927986 -0.07105635 0.029309828
000270 69 95 42 3e 63 04 2d 3e 62 32 53 be 81 20 0d bf
       0.19002308 0.16896205 -0.20624688 -0.5512772
000280 92 26 9f 3e 28 37 a2 bd 17 96 86 be f0 24 01 3d
       0.31084114 -0.079206765 -0.26286384 0.031529367
000290 b1 eb b8 3e 42 1e 57 be 59 b2 81 bd 46 8c dc bc
       0.36117318 -0.21007636 -0.06332845 -0.026922356
0002a0 0e 37 c9 3e 3b c4 c5 be 2b 20 6e be 8e d7 55 3e
       0.39299816 -0.38626274 -0.23254459 0.20883009
0002b0 55 49 54 be d9 0d d0 3e 53 fc c7 3c 90 00 2b be
       -0.20731099 0.40635565 0.02441231 -0.16699433
0002c0 44 0e db bd e7 a4 d4 3e d9 a3 26 3e 0d 29 e6 bd
       -0.1069608 0.4153206 0.1627344 -0.112382986
0002d0 a7 79 93 be bc 63 6b 3e d5 c9 88 be 98 29 99 be
       -0.2880375 0.22987264 -0.26716486 -0.29914546
0002e0 21 f5 9d 3d ea 1e a3 3c 0c bd 46 3e 59 a6 f3 3d
       0.0771277 0.019912202 0.19408053 0.11896963
0002f0 05 dd a1 be 98 ed 48 3e be 29 1c 3e e2 b4 95 be
       -0.31613937 0.19621885 0.15250298 -0.29239565
000300 c5 db 24 3e 61 03 c7 be 7a 4f 43 3e 2b fa f7 3e
       0.1609946 -0.38869765 0.19073287 0.4843305
000310 af 1f 1f bf 95 04 02 be fb 0e 5b be a6 8e d6 be
       -0.6215772 -0.1269706 -0.21392433 -0.41905707
000320 c0 1b 17 3e 95 d4 00 3d 34 8f 5d 3e 20 96 4a bf
       0.1475668 0.031452734 0.21636659 -0.7913532
000330 95 f8 28 bf f9 18 ef 3e f6 89 6c be d9 d0 21 be
       -0.66004306 0.4669874 -0.23099503 -0.15802325
000340 70 2b ea 3d a5 81 8c 3e 59 e4 32 be 5f b3 39 bf
       0.11434066 0.2744266 -0.1746992 -0.72539324
000350 d2 ec f9 bc ad 65 f0 3c fb 1d 51 3e 65 ee ac 3e
       -0.030508433 0.029345358 0.20421593 0.3377563
000360 5f 8d 37 be 90 a4 bb 3e 2d c2 42 3e 0b f9 5b 3e
       -0.17925023 0.3664899 0.19019385 0.21481721
000370 96 23 80 be d3 16 fa 3d ae f2 92 3e 6c 8a d0 3e
       -0.2502715 0.122113846 0.28700775 0.40730608
000380 12 ad 89 3e 60 87 b8 be 68 69 38 be 2e 6f 2b 3e
       0.26889855 -0.36040783 -0.1800896 0.1674163
000390 12 66 9b be 00 9e 6a be 79 f4 1f 3e f0 f3 91 3e
       -0.3035131 -0.22911835 0.15620603 0.28506422
0003a0 12 49 55 3e 2d 60 c8 3e 71 b7 31 3e b5 46 d8 bd
       0.20828655 0.39135876 0.17355134 -0.10560361
0003b0 c5 53 a7 be cf 7c 31 3e d4 52 bb bb 2d 62 35 3d
       -0.326811 0.17332767 -0.005716661 0.04428308
0003c0 ac 74 1d bd dd e3 61 3e 73 34 64 3e 85 d4 2b 3d
       -0.038441345 0.22059579 0.22285633 0.04195072
0003d0 9e c0 f8 3e ec a2 a5 be 9a e5 e1 bd 2d 73 dd bb
       0.48584455 -0.32350862 -0.11030121 -0.006758115
0003e0 c9 a9 87 3e 51 44 36 be fc 6c 59 be bb 24 00 be
       0.26496723 -0.17799498 -0.2123298 -0.12514012
0003f0 25 d8 15 be 0f 25 d0 3e ec b3 02 bd 3b 0e e3 bd
       -0.14633234 0.40653273 -0.031909868 -0.110866986

conv1.lin_dst.weight f4 [64, 4]
000000 dc af 86 3e 7b e6 54 be e8 3c 0b 3e f4 2f 9f 3e
       0.26306045 -0.20791046 0.13597453 0.31091273
000010 3d a0 cd be c8 7b d8 3d 46 f9 2c be 40 44 a6 be
       -0.40161315 0.105704844 -0.16891965 -0.32473946
000020 89 87 b3 3e d3 e9 b0 be 72 28 90 3d f2 f5 9b bd
       0.35064343 -0.34553394 0.07038964 -0.0761527
000030 7f 90 d2 be d7 63 7f 3e 32 d9 75 3e 55 0f e4 be
       -0.41125867 0.2494043 0.24008635 -0.44542947
000040 ac d3 92 3e 8a 5d 65 be 50 b5 61 be fb 2a b7 3b
       0.28677118 -0.22398964 -0.22041821 0.0055898405
000050 7d 32 40 3e bd 27 f2 3d af 13 89 be be aa 75 bf
       0.1876926 0.11823986 -0.2677283 -0.95963657
000060 1c 8a 80 be fe 5c bd 3e 0e ec 7d be 80 f3 c0 bd
       -0.2510537 0.3698501 -0.24797079 -0.09421444
000070 13 8c 36 3e 7d 9b 4e be f9 32 96 3e 09 42 b0 bd
       0.17826872 -0.20176502 0.29335764 -0.08606345
000080 4c 0b 17 be db 3e 31 3e cb b2 75 be 46 57 9b 3e
       -0.14750403 0.17309134 -0.23993985 0.30340022
000090 47 d6 9c 3e c9 fd 81 be ad 57 88 be 3d 1b 06 bf
       0.3063223 -0.25388935 -0.2662939 -0.5238531
0000a0 5f 0f ca be d7 87 9f bd a3 55 69 3d be 9f 10 be
       -0.39464852 -0.07789581 0.056966435 -0.14123437
0000b0 c8 77 8f bd bf a6 da 3e be e4 7d 3d 4e 4c 9e bd
       -0.07005268 0.42705342 0.061985724 -0.07729398
0000c0 fa f0 ce be 3c 2c 8f 3e d8 82 aa bd 93 82 1b bd
       -0.40418226 0.27963436 -0.08325738 -0.037966322
0000d0 91 32 f4 be 57 04 05 3f be c9 8b 3d a2 b8 0c be
       -0.4769483 0.5195975 0.06825589 -0.13742307
0000e0 cb bb 0e bf 80 d6 d1 bb 38 a0 6d 3e 70 ff da bd
       -0.557553 -0.006403744 0.2320565 -0.10693252
0000f0 fc 3f a3 bc da fe e3 bd df 37 65 3e 27 16 6a 3e
       -0.019927971 -0.111325935 0.22384594 0.22860013
000100 22 45 34 3e 32 95 bb be 8b 0e 63 3e 57 5c 99 3e
       0.17604497 -0.36637264 0.22173516 0.29953262
000110 b1 e8 70 3e 33 d5 e0 3e 22 5f 82 be 5b 7e 11 be
       0.23526265 0.43912658 -0.25463206 -0.14208357
000120 73 f4 55 be b8 47 d8 3e 9a 6b 21 be f3 a1 8d be
       -0.20894031 0.42242217 -0.15763703 -0.2766262
000130 bf 06 f1 3d 0f fa be 3e 7e 2b 8c be 85 dc ef bd
       0.11768865 0.37300155 -0.27376932 -0.11711983
000140 2f 5c c2 be 43 6d 23 3e 1b 71 85 3e ea 27 94 be
       -0.37960956 0.15959649 0.26062855 -0.28936702
000150 b9 42 0f be 4a 90 b2 3e c7 57 a8 3b 23 48 de bd
       -0.13990296 0.3487571 0.005137417 -0.10853603
000160 85 61 81 3e e4 a3 1b be 93 06 8a be 12 45 77 3d
       0.25269714 -0.15199238 -0.2695814 0.060368605
000170 85 76 ab 3e d9 09 02 be fd d8 e3 3d cb 14 f6 bd
       0.3348886 -0.12699069 0.111253716 -0.12015685
000180 d8 09 91 3e 96 91 0d 3e 6f ca 39 3e 4a 09 96 be
       0.28327823 0.13825068 0.18143629 -0.29303962
000190 2b f5 b9 bd 00 1c c4 3e 43 73 2b be db 39 9c be
       -0.09079965 0.38302612 -0.16743188 -0.3051289
0001a0 aa 57 b6 3e 55 30 c3 3e 4d 70 11 3e 00 d3 97 be
       0.35613757 0.38122812 0.14202996 -0.29653168
0001b0 32 0d 3b bf a3 01 1d 3f fb 57 23 be f5 59 21 bd
       -0.7306701 0.6133062 -0.1595153 -0.03939243
0001c0 6a 87 12 bf 16 a5 36 3f cd b0 2f 3e 92 d6 c2 3c
       -0.57237875 0.7134565 0.17157288 0.023783956
0001d0 0c 3d 30 bf bb be 11 3f f9 9d 38 be a2 14 37 3e
       -0.6884315 0.56931657 -0.18029012 0.17878965
0001e0 b0 31 f0 be 05 66 07 3f 5d 11 69 be 98 64 dc 3e
       -0.4691291 0.52890044 -0.2276053 0.43045497
0001f0 29 9e e5 bd 52 99 d5 3c bd f7 0d be 41 fc c3 3e
       -0.11211807 0.026074085 -0.13864036 0.38278392
000200 de a8 15 be e6 c7 dd be 86 c0 c2 bd 0f 4d 6c 3d
       -0.14615199 -0.43316573 -0.09509377 0.057690676
000210 fe 46 69 3d bd c9 1e bd 61 a2 f0 bc a4 5b 66 3e
       0.05695247 -0.03876661 -0.029374303 0.22495896
000220 fe c1 dd bd 8c 28 85 3e 8c 9e 88 3e eb fb bb bd
       -0.10828017 0.26007497 0.26683462 -0.09178909
000230 92 d2 a9 3d e3 86 c5 be 9a ab c2 bd 9a 26 46 3e
       0.08292116 -0.38579473 -0.09505387 0.19350663
000240 aa d5 b9 bd f4 d0 89 be 2e ae 43 3d 6e d0 76 bf
       -0.09073956 -0.2691723 0.047773533 -0.9641179
000250 8a b4 a9 3e 22 5d c6 be 67 69 6d 3e ea 97 9f 3e
       0.33145553 -0.3874293 0.23184739 0.3117059
000260 6b 88 40 3e b3 57 2d be fe 85 91 bd 2a 1b f0 3c
       0.1880204 -0.16927986 -0.07105635 0.029309828
000270 69 95 42 3e 63 04 2d 3e 62 32 53 be 81 20 0d bf
       0.19002308 0.16896205 -0.20624688 -0.5512772
000280 92 26 9f 3e 28 37 a2 bd 17 96 86 be f0 24 01 3d
       0.31084114 -0.079206765 -0.26286384 0.031529367
000290 b1 eb b8 3e 42 1e 57 be 59 b2 81 bd 46 8c dc bc
       0.36117318 -0.21007636 -0.06332845 -0.026922356
0002a0 0e 37 c9 3e 3b c4 c5 be 2b 20 6e be 8e d7 55 3e
       0.39299816 -0.38626274 -0.23254459 0.20883009
0002b0 55 49 54 be d9 0d d0 3e 53 fc c7 3c 90 00 2b be
       -0.20731099 0.40635565 0.02441231 -0.16699433
0002c0 44 0e db bd e7 a4 d4 3e d9 a3 26 3e 0d 29 e6 bd
       -0.1069608 0.4153206 0.1627344 -0.112382986
0002d0 a7 79 93 be bc 63 6b 3e d5 c9 88 be 98 29 99 be
       -0.2880375 0.22987264 -0.26716486 -0.29914546
0002e0 21 f5 9d 3d ea 1e a3 3c 0c bd 46 3e 59 a6 f3 3d
       0.0771277 0.019912202 0.19408053 0.11896963
0002f0 05 dd a1 be 98 ed 48 3e be 29 1c 3e e2 b4 95 be
       -0.31613937 0.19621885 0.15250298 -0.29239565
000300 c5 db 24 3e 61 03 c7 be 7a 4f 43 3e 2b fa f7 3e
       0.1609946 -0.38869765 0.19073287 0.4843305
000310 af 1f 1f bf 95 04 02 be fb 0e 5b be a6 8e d6 be
       -0.6215772 -0.1269706 -0.21392433 -0.41905707
000320 c0 1b 17 3e 95 d4 00 3d 34 8f 5d 3e 20 96 4a bf
       0.1475668 0.031452734 0.21636659 -0.7913532
000330 95 f8 28 bf f9 18 ef 3e f6 89 6c be d9 d0 21 be
       -0.66004306 0.4669874 -0.23099503 -0.15802325
000340 70 2b ea 3d a5 81 8c 3e 59 e4 32 be 5f b3 39 bf
       0.11434066 0.2744266 -0.1746992 -0.72539324
000350 d2 ec f9 bc ad 65 f0 3c fb 1d 51 3e 65 ee ac 3e
       -0.030508433 0.029345358 0.20421593 0.3377563
000360 5f 8d 37 be 90 a4 bb 3e 2d c2 42 3e 0b f9 5b 3e
       -0.17925023 0.3664899 0.19019385 0.21481721
000370 96 23 80 be d3 16 fa 3d ae f2 92 3e 6c 8a d0 3e
       -0.2502715 0.122113846 0.28700775 0.40730608
000380 12 ad 89 3e 60 87 b8 be 68 69 38 be 2e 6f 2b 3e
       0.26889855 -0.36040783 -0.1800896 0.1674163
000390 12 66 9b be 00 9e 6a be 79 f4 1f 3e f0 f3 91 3e
       -0.3035131 -0.22911835 0.15620603 0.28506422
0003a0 12 49 55 3e 2d 60 c8 3e 71 b7 31 3e b5 46 d8 bd
       0.20828655 0.39135876 0.17355134 -0.10560361
0003b0 c5 53 a7 be cf 7c 31 3e d4 52 bb bb 2d 62 35 3d
       -0.326811 0.17332767 -0.005716661 0.04428308
0003c0 ac 74 1d bd dd e3 61 3e 73 34 64 3e 85 d4 2b 3d
       -0.038441345 0.22059579 0.22285633 0.04195072
0003d0 9e c0 f8 3e ec a2 a5 be 9a e5 e1 bd 2d 73 dd bb
       0.48584455 -0.32350862 -0.11030121 -0.006758115
0003e0 c9 a9 87 3e 51 44 36 be fc 6c 59 be bb 24 00 be
       0.26496723 -0.17799498 -0.2123298 -0.12514012
0003f0 25 d8 15 be 0f 25 d0 3e ec b3 02 bd 3b 0e e3 bd
       -0.14633234 0.40653273 -0.031909868 -0.110866986

conv2.att_src f4 [1, 8, 8]
000000 fb 07 41 3f 56 d2 7a 3f a9 2e a4 3d 35 3e 01 3f
       0.754028 0.979772 0.08016712 0.50485545
000010 35 1e 38 bf 41 51 51 3e 42 3f 7f be cf da 3f bf
       -0.7192109 0.20441152 -0.24926475 -0.7494325
000020 62 69 d8 3e da bc ba be ba 52 25 3f e5 2e b5 3e
       0.422679 -0.36472207 0.64579356 0.3538734
000030 40 08 6c 3d 53 a8 ee 3e 95 02 fb bd 11 d5 02 be
       0.057625055 0.46612796 -0.12256352 -0.12776591
000040 99 76 cb 3e 39 d5 90 bd 89 ec 28 be 4e 38 cd 3e
       0.3973892 -0.07071919 -0.16496481 0.4008202
000050 55 18 6d 3e 3b 21 13 be 4a 2e 9a be ea 40 cf be
       0.23153813 -0.14368145 -0.3011344 -0.40479213
000060 62 24 67 be 25 6a 05 bf da a0 0e 3f 26 fe 20 3f
       -0.22572473 -0.5211509 0.5571419 0.628878
000070 29 aa bc be 96 52 8d be 41 e7 61 3f a2 28 26 3f
       -0.36848572 -0.2760207 0.8824349 0.6490575
000080 c7 46 1b bf 79 c0 09 be 73 9a 19 bf b8 87 3a 3e
       -0.6065487 -0.13452329 -0.60001296 0.18215835
000090 66 ac bb be e6 32 05 3e c0 1b 88 3e 31 14 28 3e
       -0.36654967 0.13007697 0.26583672 0.16413952
0000a0 e7 4b 15 3f 3a bd d3 3e 82 ad b6 3e 47 4b 36 3e
       0.5831894 0.41355306 0.3567925 0.17802154
0000b0 83 ec 0d 3f 7f 84 10 be 62 86 8e 3c 19 a4 14 be
       0.55439013 -0.14113043 0.017398063 -0.14515723
0000c0 e5 0c 96 be d7 fa b9 3e 78 46 68 3e 0a 17 e8 3e
       -0.29306713 0.36324188 0.22683132 0.45330077
0000d0 53 52 2e 3f 2c ff 03 bf 59 f5 a6 3e 81 da e1 3e
       0.68094367 -0.51561236 0.3260906 0.44112018
0000e0 e5 34 54 bf 51 04 0e 3f b6 e8 84 3d 59 cf 09 3f
       -0.8289321 0.55475336 0.064896986 0.5383201
0000f0 39 09 71 3f d3 21 49 bd 3e fd e9 3e ec 60 1e 3f
       0.941547 -0.049104523 0.4570102 0.6186664

conv2.att_dst f4 [1, 8, 8]
000000 34 ff b8 be 37 12 01 3e fb ba 96 bd 0b 06 9b 3e
       -0.36132205 0.12604605 -0.073598824 0.30278048
000010 84 69 e6 3e d2 08 53 bf 15 f1 e3 3e 1a ce 3b bd
       0.45002377 -0.82435334 0.44519868 -0.04585085
000020 4e 1b 2c 3f 5f 17 13 3f 26 3f 0b 3f 27 ec 69 3f
       0.67229164 0.57457536 0.5439323 0.91375965
000030 94 cc 36 bf 2f 6f 68 bf 43 06 33 bf ff b1 23 bf
       -0.7140591 -0.9079465 -0.6993143 -0.63943475
000040 35 c4 d3 be 5d 00 0a 3f 27 2f d7 bd 13 f7 74 3f
       -0.41360632 0.53906804 -0.105070405 0.95689505
000050 83 1a be be 16 ec 5c bd 6d 22 27 3f 54 46 4b be
       -0.37129602 -0.053936087 0.65286905 -0.19851047
000060 39 a6 c0 3e fe 1b 24 be 9e b9 3c bd 00 f6 e2 3f
       0.37626818 -0.16026303 -0.046075456 1.7731323
000070 48 6f b0 be 35 5f 5a bd 9f 06 ef 3e c9 34 4d bf
       -0.344599 -0.053313453 0.4668474 -0.8015867
000080 30 de cd 3e 1d e2 8c be fb b9 fe be c2 3f 7b 3f
       0.40208578 -0.2751626 -0.49751267 0.9814416
000090 53 ee 71 3f 1a 86 8e bf de a9 a0 bf b7 68 8b 3e
       0.9450428 -1.1134675 -1.2551839 0.2722833
0000a0 64 79 7b 3f 2e 09 22 3e f6 db 5b 3f c4 b2 e6 3d
       0.982321 0.15823814 0.8588251 0.112645656
0000b0 53 1d 74 be 6d 1a 64 be ed cf 51 3d 78 11 21 3e
       -0.23839311 -0.22275706 0.051223684 0.1572932
0000c0 50 cd 89 be 54 78 1c bf 93 33 26 3f 3d 29 cf 3c
       -0.26914454 -0.61121106 0.64922446 0.025288219
0000d0 86 fa ef 3e a0 b9 65 3e c6 4c 0c 3f 1d fa 66 be
       0.46870822 0.22434092 0.54804647 -0.22556348
0000e0 b5 33 0e be dd 8c 3d 3f b6 3d 91 3d 39 ac f1 be
       -0.13886912 0.74043065 0.070918486 -0.47201708
0000f0 46 af 4c 3f b6 2e d1 be a0 9e 1f bf b6 d1 27 bf
       0.79954946 -0.4085595 -0.6235142 -0.6555437

conv2.bias f4 [64]
000000 20 ab 88 bd 45 9c 87 3c 79 7a bd 3b 09 ce 56 3d
       -0.066732645 0.016554007 0.005782422 0.052442584
000010 98 aa a1 3d 1a 2a 01 be ec c4 77 bd e0 6c a6 bd
       0.07893866 -0.12613717 -0.060490534 -0.08126235
000020 1e 92 c2 bd 44 7c 0a bc 2a 00 62 ba 3f 27 04 bd
       -0.09500526 -0.008452479 -0.000862124 -0.03226399
000030 82 17 57 3e c7 3c 06 3d 42 85 9a bc 95 a3 0f be
       0.21005061 0.032772806 -0.01886237 -0.14027245
000040 fe a3 ae 3d b5 67 d0 bd 76 2d 13 3e 05 b5 52 bc
       0.08527373 -0.101760305 0.1437281 -0.012860541
000050 f5 dd 05 3e de 2a 0a 3e 38 ed b4 ba aa 42 0a 3d
       0.13072951 0.13492915 -0.0013803607 0.033754982
000060 f4 f3 79 3c e2 7a a6 3b 5f 94 c6 bd 83 36 3a 3d
       0.015255917 0.0050805667 -0.09696268 0.045462143
000070 9f c9 43 3d b4 6e 7d bc 86 6d 6f bd 54 e3 c1 bb
       0.047799703 -0.015468288 -0.05845406 -0.005916992
000080 5e 68 00 3e 8c 89 88 3e 51 1c 4d 3e 0b bf 93 bd
       0.12539813 0.2666744 0.20030333 -0.07214173
000090 e1 d7 18 3e 5c fc 06 3d 1e 44 d4 3e da 0c 07 3d
       0.14926101 0.032955512 0.4145822 0.03297124
0000a0 27 7d 80 3c 21 6f a5 3c d2 1d 1d bd 5c 15 9e be
       0.015684677 0.020194592 -0.038358517 -0.3087567
0000b0 03 90 a7 bd c2 1e b4 bc ad 60 47 3e 90 9e 12 3d
       -0.08181765 -0.021987323 0.19470473 0.03579575
0000c0 04 b7 9e bb 1f 74 0a ba 84 82 2e 3e 84 2c c6 3d
       -0.0048435945 -0.00052815856 0.17041975 0.096764594
0000d0 6d 45 44 3d 95 e3 a0 bd eb 10 86 3e 76 7d ac bc
       0.047917772 -0.07855908 0.26184782 -0.021055918
0000e0 d2 92 8c bd 8a 26 65 bd c3 f5 b1 bc 25 28 20 be
       -0.06863941 -0.055944957 -0.021723634 -0.15640314
0000f0 74 f9 2d be 6d a7 1b bd e4 79 71 bd 5b 45 24 bd
       -0.1698969 -0.038001467 -0.058954135 -0.040105205

conv2.lin_src.weight f4 [64, 64]
000000 3c 3f 35 3e ae 59 23 3d 81 d3 11 bd 89 0b 47 3e
       0.17699903 0.039880447 -0.035602096 0.19437994
000010 36 cc 86 3d e6 72 ef bd 70 20 86 3b 44 85 05 3e
       0.06581919 -0.11691837 0.0040932223 0.13039118
000020 3a 67 19 bf ee 22 cb 3e 8b 0c 25 be 56 ad 9f be
       -0.59923136 0.39675087 -0.16118066 -0.31186932
000030 b8 b1 36 be a7 d0 87 be ef 8d 0b be e2 4b 2b bd
       -0.17841232 -0.26526377 -0.13628362 -0.041820414
000040 3e 2e 23 be d2 6a 2a 3e ba ef 23 bd 9e 0e 4e 3d
       -0.15935609 0.16642311 -0.040023543 0.05030691
000050 3e 64 d9 bd ae 91 00 3e ed 66 b4 3d 0b 4c a9 bd
       -0.10614823 0.12555572 0.08808694 -0.08266457
000060 ba f8 4c 3d 7f e8 d3 3d e5 33 d7 3d b7 95 89 bd
       0.05004189 0.103470795 0.10507945 -0.06718009
000070 94 09 29 be e2 b4 58 be 3b ee dc be 47 e5 8a be
       -0.1650756 -0.21162751 -0.43150505 -0.2712805
000080 f7 56 1a bc c4 c0 55 be dc a5 84 3e 37 f2 f5 bd
       -0.009420148 -0.20874316 0.2590779 -0.120090894
000090 3b 44 8c 3d 0d 80 06 bf c0 42 1f be 97 a4 09 3b
       0.068489514 -0.5253914 -0.15552807 0.0021002644
0000a0 e8 d9 09 bc 59 68 ae ba 0a 9d b4 be 4d d2 38 3e
       -0.008413769 -0.0013306245 -0.3527606 0.18048973
0000b0 1a d4 0a be c5 ee 87 3e 7b 2d a3 bd d8 46 0d 3e
       -0.13557473 0.26549354 -0.07967659 0.13796556
0000c0 73 35 22 3d be 07 6d 3d 3d 41 b1 3e 49 3a 7d be
       0.039601754 0.05786871 0.34620085 -0.24729265
0000d0 9e 86 ca 3e 4d 4b bd be 1e d9 8f be b4 09 02 bf
       0.3955583 -0.36971512 -0.28095335 -0.50796056
0000e0 5a 44 7d be 19 1e 99 bd 26 19 15 bd 03 42 0a be
       -0.24733105 -0.07476444 -0.036400937 -0.13501744
0000f0 ac e6 0e be 3e 8b 11 3b 02 8b 63 bd 9d c0 6b 3e
       -0.13955182 0.002220824 -0.05555249 0.23022695
000100 86 24 45 be 84 53 ce bd 54 19 65 be 6f d0 8d 3e
       -0.19252214 -0.10074523 -0.22372943 0.27698085
000110 02 9e d6 bd 3b 98 4a 3e 32 eb e0 3e 9e 44 3f 3d
       -0.10479356 0.19784634 0.4392944 0.046696298
000120 e0 cc d3 bd c3 13 6e bd bd bb 8c bc 2f c8 a4 bd
       -0.10341811 -0.058124315 -0.017179364 -0.080459945
000130 3d 8a cb 3d 18 50 47 3e 51 db 9c be f2 fb 5d be
       0.09938476 0.19464147 -0.30636075 -0.21678141
000140 7f b2 05 be 36 48 18 3e 71 f8 bf 3d c4 58 6d 3e
       -0.13056372 0.14871296 0.09373558 0.23178393
000150 a1 04 b8 bd e9 61 2a bd f6 61 a9 3c 9c 3e fb 3d
       -0.08985258 -0.04159728 0.020676594 0.12267801
000160 27 8c 38 bc be da 4c bd 77 4c 04 3e 3f 31 92 3e
       -0.011263884 -0.050013296 0.12919794 0.28553197
000170 a0 e8 e2 3e 16 df 4d bd 39 a2 97 3d e4 24 8f 3e
       0.44318104 -0.05026158 0.074039884 0.27957833
000180 9d 7a 6b be 73 af 26 bd ef c5 e1 3e f6 89 08 bf
       -0.22995992 -0.040694665 0.44096324 -0.5333551
000190 03 73 91 bd b4 5a d9 be 99 78 49 bd 52 81 ce 3e
       -0.07102015 -0.42452013 -0.049187277 0.4033304
0001a0 37 f1 55 3c fe ce d6 3d 37 95 6d be 2e ea 87 3e
       0.013057998 0.104886994 -0.23201452 0.26545852
0001b0 56 63 04 3e b5 04 e5 3d 87 6f db 3b 0f 28 3c 3d
       0.12928519 0.111825384 0.0066966447 0.04593664
0001c0 2e d6 9f 3d 9b ca 00 3e d9 bf 4d be 8e 0f dd 3e
       0.078045234 0.12577288 -0.20092715 0.4317593
0001d0 c7 a7 11 bd af d6 1a 3d 22 35 76 3d 96 bf 37 3e
       -0.035560396 0.037802394 0.060109265 0.17944178
0001e0 75 a0 83 bd 8a 69 f2 3d 39 47 e3 3c 0d 93 fd 3c
       -0.06427089 0.11836536 0.027743923 0.030953908
0001f0 25 19 25 3e 04 2a 3e 3e 18 8f ec bc 74 df 5f 3e
       0.16122873 0.18570715 -0.028876826 0.21862584
000200 85 2e 28 bd af 80 37 be 09 2b 41 3e 14 cd 85 3b
       -0.04105999 -0.17920183 0.18864073 0.004083285
000210 64 ac 6a 3c d7 23 de bd d2 65 6a be 00 b1 33 3e
       0.014323328 -0.1084668 -0.22890404 0.17547989
000220 b4 96 4a bc fd 4a 2a 3d 43 74 4b 3e fb a8 4b 3b
       -0.012365032 0.04157542 0.19868569 0.0031076062
000230 8d 5d d3 3d ec 60 53 3d c5 07 62 bd 30 e3 c1 3d
       0.10320578 0.051606104 -0.05518319 0.09467161
000240 6f bf cd 3d 0f d4 51 3e a0 20 45 3e 2f cf 84 bd
       0.10046279 0.2049105 0.19250727 -0.0648483
000250 6c ff 51 3e 83 8a 42 3e c7 fd fb 3d 28 fe 35 3e
       0.20507592 0.1899815 0.123042636 0.17772734
000260 dc 7e db bd 9a ee 46 bd e9 99 3b be 2b e0 4b 3d
       -0.10717556 -0.048567392 -0.18320431 0.04977433
000270 5e 4e bc bd a7 34 52 3e 56 fd 9a 3c 2b 62 47 3e
       -0.09194635 0.20527898 0.018919628 0.19471042
000280 a3 c0 78 3e c9 6f 04 be 5f 39 3c bb 41 e8 dc bd
       0.24292235 -0.12933268 -0.002872072 -0.107864864
000290 94 6a 8f bd 67 d5 44 3d cb a9 23 be a1 4e 9b bd
       -0.0700275 0.04805508 -0.1598274 -0.07583357
0002a0 0d e6 d3 3d 47 8a d4 3c 0f 62 36 3e 0f c3 40 3e
       0.10346613 0.025944842 0.17810844 0.18824409
0002b0 f1 38 1b 3e c1 31 29 be d7 de db 3d 94 e8 b3 3d
       0.1515844 -0.16522886 0.10735863 0.08784595
0002c0 c3 0f dc bd 19 60 98 bd 87 c4 78 be c3 d9 5d 3e
       -0.10745194 -0.07440204 -0.24293719 0.21665101
0002d0 95 e3 0a 3e 66 6e 8a 3d 3c 66 71 3d f3 b6 3f 3d
       0.13563378 0.06759338 0.05893539 0.046805333
0002e0 67 4a 3d 3e b6 7d fb 3d 1f f1 2f 3e 1e 1b 42 be
       0.18485413 0.12279837 0.17181824 -0.18955657
0002f0 fa 74 eb 3c 4f 38 0f 3e ef f0 b9 bc 2a a0 89 3e
       0.028742302 0.13986324 -0.022697894 0.26880008
000300 9f 2d 88 bd 50 c6 f0 bc 7e 74 b9 bd 39 29 56 be
       -0.066493265 -0.029391438 -0.09055422 -0.20914163
000310 06 a5 89 be 94 58 64 3c 77 3a a0 3e bd 24 58 be
       -0.26883715 0.013937134 0.31294605 -0.21107765
000320 9a c8 c8 3d f9 16 55 3d 37 b5 2e 3b ab f2 f0 bb
       0.09803887 0.05202386 0.0026658305 -0.007353147
000330 5d cf b8 bc 69 94 41 3d d2 24 dd bd 63 45 93 3c
       -0.022559816 0.047260676 -0.107980385 0.017977422
000340 51 6e f1 3c 55 7e 71 3e f9 e1 8f 3d d8 c8 98 3e
       0.029471548 0.23583348 0.07025523 0.29840732
000350 c3 41 a2 3d cc 51 d1 bd f2 d1 db bc 64 25 a8 3d
       0.07922699 -0.1022068 -0.026833508 0.08210257
000360 78 da 0a be b0 8f 63 bd d6 71 4a bd 21 25 39 be
       -0.13559902 -0.055556953 -0.04942497 -0.1808057
000370 be ae df 3c 45 e5 4d be 04 2d cf bb ac b0 8e be
       0.027305003 -0.2010699 -0.006322505 -0.27869165
000380 a0 c2 dc bd 38 02 3b 3d 63 1e ed 3d 5b 12 cd be
       -0.10779309 0.045656413 0.115780614 -0.40053067
000390 28 19 7f be 32 1d 4f be 36 7e 6b bc 98 20 b5 bc
       -0.2491194 -0.20225981 -0.014373353 -0.022110268
0003a0 8a 1f a1 bd 7f 2b 3a be 56 65 ab be 74 5b 54 3e
       -0.07867344 -0.18180655 -0.3347575 0.20738012
0003b0 bc 32 82 3d 73 b1 95 bd c9 27 39 3e 84 d8 dd bd
       0.06357333 -0.073092364 0.18081583 -0.10832313
0003c0 ca 4f 96 bd 5a d9 11 3d f8 46 c4 bd 48 ea 87 be
       -0.07339437 0.035607673 -0.09583849 -0.2654593
0003d0 ba 22 82 3e 08 be ab be f6 2a fe bd 07 44 c6 bd
       0.2541712 -0.3354342 -0.12410538 -0.09680944
0003e0 3f 79 07 3d 3b e3 89 bd fc 77 9c bb 3c 89 45 be
       0.033074614 -0.06732794 -0.0047750454 -0.19290632
0003f0 9d d8 b7 3d 60 69 a3 3d bd 9f fc bc 2e 88 07 3d
       0.089768626 0.07979083 -0.030837888 0.033088855

conv2.lin_dst.weight f4 [64, 64]
000000 3c 3f 35 3e ae 59 23 3d 81 d3 11 bd 89 0b 47 3e
       0.17699903 0.039880447 -0.035602096 0.19437994
000010 36 cc 86 3d e6 72 ef bd 70 20 86 3b 44 85 05 3e
       0.06581919 -0.11691837 0.0040932223 0.13039118
000020 3a 67 19 bf ee 22 cb 3e 8b 0c 25 be 56 ad 9f be
       -0.59923136 0.39675087 -0.16118066 -0.31186932
000030 b8 b1 36 be a7 d0 87 be ef 8d 0b be e2 4b 2b bd
       -0.17841232 -0.26526377 -0.13628362 -0.041820414
000040 3e 2e 23 be d2 6a 2a 3e ba ef 23 bd 9e 0e 4e 3d
       -0.15935609 0.16642311 -0.040023543 0.05030691
000050 3e 64 d9 bd ae 91 00 3e ed 66 b4 3d 0b 4c a9 bd
       -0.10614823 0.12555572 0.08808694 -0.08266457
000060 ba f8 4c 3d 7f e8 d3 3d e5 33 d7 3d b7 95 89 bd
       0.05004189 0.103470795 0.10507945 -0.06718009
000070 94 09 29 be e2 b4 58 be 3b ee dc be 47 e5 8a be
       -0.1650756 -0.21162751 -0.43150505 -0.2712805
000080 f7 56 1a bc c4 c0 55 be dc a5 84 3e 37 f2 f5 bd
       -0.009420148 -0.20874316 0.2590779 -0.120090894
000090 3b 44 8c 3d 0d 80 06 bf c0 42 1f be 97 a4 09 3b
       0.068489514 -0.5253914 -0.15552807 0.0021002644
0000a0 e8 d9 09 bc 59 68 ae ba 0a 9d b4 be 4d d2 38 3e
       -0.008413769 -0.0013306245 -0.3527606 0.18048973
0000b0 1a d4 0a be c5 ee 87 3e 7b 2d a3 bd d8 46 0d 3e
       -0.13557473 0.26549354 -0.07967659 0.13796556
0000c0 73 35 22 3d be 07 6d 3d 3d 41 b1 3e 49 3a 7d be
       0.039601754 0.05786871 0.34620085 -0.24729265
0000d0 9e 86 ca 3e 4d 4b bd be 1e d9 8f be b4 09 02 bf
       0.3955583 -0.36971512 -0.28095335 -0.50796056
0000e0 5a 44 7d be 19 1e 99 bd 26 19 15 bd 03 42 0a be
       -0.24733105 -0.07476444 -0.036400937 -0.13501744
0000f0 ac e6 0e be 3e 8b 11 3b 02 8b 63 bd 9d c0 6b 3e
       -0.13955182 0.002220824 -0.05555249 0.23022695
000100 86 24 45 be 84 53 ce bd 54 19 65 be 6f d0 8d 3e
       -0.19252214 -0.10074523 -0.22372943 0.27698085
000110 02 9e d6 bd 3b 98 4a 3e 32 eb e0 3e 9e 44 3f 3d
       -0.10479356 0.19784634 0.4392944 0.046696298
000120 e0 cc d3 bd c3 13 6e bd bd bb 8c bc 2f c8 a4 bd
       -0.10341811 -0.058124315 -0.017179364 -0.080459945
000130 3d 8a cb 3d 18 50 47 3e 51 db 9c be f2 fb 5d be
       0.09938476 0.19464147 -0.30636075 -0.21678141
000140 7f b2 05 be 36 48 18 3e 71 f8 bf 3d c4 58 6d 3e
       -0.13056372 0.14871296 0.09373558 0.23178393
000150 a1 04 b8 bd e9 61 2a bd f6 61 a9 3c 9c 3e fb 3d
       -0.08985258 -0.04159728 0.020676594 0.12267801
000160 27 8c 38 bc be da 4c bd 77 4c 04 3e 3f 31 92 3e
       -0.011263884 -0.050013296 0.12919794 0.28553197
000170 a0 e8 e2 3e 16 df 4d bd 39 a2 97 3d e4 24 8f 3e
       0.44318104 -0.05026158 0.074039884 0.27957833
000180 9d 7a 6b be 73 af 26 bd ef c5 e1 3e f6 89 08 bf
       -0.22995992 -0.040694665 0.44096324 -0.5333551
000190 03 73 91 bd b4 5a d9 be 99 78 49 bd 52 81 ce 3e
       -0.07102015 -0.42452013 -0.049187277 0.4033304
0001a0 37 f1 55 3c fe ce d6 3d 37 95 6d be 2e ea 87 3e
       0.013057998 0.104886994 -0.23201452 0.26545852
0001b0 56 63 04 3e b5 04 e5 3d 87 6f db 3b 0f 28 3c 3d
       0.12928519 0.111825384 0.0066966447 0.04593664
0001c0 2e d6 9f 3d 9b ca 00 3e d9 bf 4d be 8e 0f dd 3e
       0.078045234 0.12577288 -0.20092715 0.4317593
0001d0 c7 a7 11 bd af d6 1a 3d 22 35 76 3d 96 bf 37 3e
       -0.035560396 0.037802394 0.060109265 0.17944178
0001e0 75 a0 83 bd 8a 69 f2 3d 39 47 e3 3c 0d 93 fd 3c
       -0.06427089 0.11836536 0.027743923 0.030953908
0001f0 25 19 25 3e 04 2a 3e 3e 18 8f ec bc 74 df 5f 3e
       0.16122873 0.18570715 -0.028876826 0.21862584
000200 85 2e 28 bd af 80 37 be 09 2b 41 3e 14 cd 85 3b
       -0.04105999 -0.17920183 0.18864073 0.004083285
000210 64 ac 6a 3c d7 23 de bd d2 65 6a be 00 b1 33 3e
       0.014323328 -0.1084668 -0.22890404 0.17547989
000220 b4 96 4a bc fd 4a 2a 3d 43 74 4b 3e fb a8 4b 3b
       -0.012365032 0.04157542 0.19868569 0.0031076062
000230 8d 5d d3 3d ec 60 53 3d c5 07 62 bd 30 e3 c1 3d
       0.10320578 0.051606104 -0.05518319 0.09467161
000240 6f bf cd 3d 0f d4 51 3e a0 20 45 3e 2f cf 84 bd
       0.10046279 0.2049105 0.19250727 -0.0648483
000250 6c ff 51 3e 83 8a 42 3e c7 fd fb 3d 28 fe 35 3e
       0.20507592 0.1899815 0.123042636 0.17772734
000260 dc 7e db bd 9a ee 46 bd e9 99 3b be 2b e0 4b 3d
       -0.10717556 -0.048567392 -0.18320431 0.04977433
000270 5e 4e bc bd a7 34 52 3e 56 fd 9a 3c 2b 62 47 3e
       -0.09194635 0.20527898 0.018919628 0.19471042
000280 a3 c0 78 3e c9 6f 04 be 5f 39 3c bb 41 e8 dc bd
       0.24292235 -0.12933268 -0.002872072 -0.107864864
000290 94 6a 8f bd 67 d5 44 3d cb a9 23 be a1 4e 9b bd
       -0.0700275 0.04805508 -0.1598274 -0.07583357
0002a0 0d e6 d3 3d 47 8a d4 3c 0f 62 36 3e 0f c3 40 3e
       0.10346613 0.025944842 0.17810844 0.18824409
0002b0 f1 38 1b 3e c1 31 29 be d7 de db 3d 94 e8 b3 3d
       0.1515844 -0.16522886 0.10735863 0.08784595
0002c0 c3 0f dc bd 19 60 98 bd 87 c4 78 be c3 d9 5d 3e
       -0.10745194 -0.07440204 -0.24293719 0.21665101
0002d0 95 e3 0a 3e 66 6e 8a 3d 3c 66 71 3d f3 b6 3f 3d
       0.13563378 0.06759338 0.05893539 0.046805333
0002e0 67 4a 3d 3e b6 7d fb 3d 1f f1 2f 3e 1e 1b 42 be
       0.18485413 0.12279837 0.17181824 -0.18955657
0002f0 fa 74 eb 3c 4f 38 0f 3e ef f0 b9 bc 2a a0 89 3e
       0.028742302 0.13986324 -0.022697894 0.26880008
000300 9f 2d 88 bd 50 c6 f0 bc 7e 74 b9 bd 39 29 56 be
       -0.066493265 -0.029391438 -0.09055422 -0.20914163
000310 06 a5 89 be 94 58 64 3c 77 3a a0 3e bd 24 58 be
       -0.26883715 0.013937134 0.31294605 -0.21107765
000320 9a c8 c8 3d f9 16 55 3d 37 b5 2e 3b ab f2 f0 bb
       0.09803887 0.05202386 0.0026658305 -0.007353147
000330 5d cf b8 bc 69 94 41 3d d2 24 dd bd 63 45 93 3c
       -0.022559816 0.047260676 -0.107980385 0.017977422
000340 51 6e f1 3c 55 7e 71 3e f9 e1 8f 3d d8 c8 98 3e
       0.029471548 0.23583348 0.07025523 0.29840732
000350 c3 41 a2 3d cc 51 d1 bd f2 d1 db bc 64 25 a8 3d
       0.07922699 -0.1022068 -0.026833508 0.08210257
000360 78 da 0a be b0 8f 63 bd d6 71 4a bd 21 25 39 be
       -0.13559902 -0.055556953 -0.04942497 -0.1808057
000370 be ae df 3c 45 e5 4d be 04 2d cf bb ac b0 8e be
       0.027305003 -0.2010699 -0.006322505 -0.27869165
000380 a0 c2 dc bd 38 02 3b 3d 63 1e ed 3d 5b 12 cd be
       -0.10779309 0.045656413 0.115780614 -0.40053067
000390 28 19 7f be 32 1d 4f be 36 7e 6b bc 98 20 b5 bc
       -0.2491194 -0.20225981 -0.014373353 -0.022110268
0003a0 8a 1f a1 bd 7f 2b 3a be 56 65 ab be 74 5b 54 3e
       -0.07867344 -0.18180655 -0.3347575 0.20738012
0003b0 bc 32 82 3d 73 b1 95 bd c9 27 39 3e 84 d8 dd bd
       0.06357333 -0.073092364 0.18081583 -0.10832313
0003c0 ca 4f 96 bd 5a d9 11 3d f8 46 c4 bd 48 ea 87 be
       -0.07339437 0.035607673 -0.09583849 -0.2654593
0003d0 ba 22 82 3e 08 be ab be f6 2a fe bd 07 44 c6 bd
       0.2541712 -0.3354342 -0.12410538 -0.09680944
0003e0 3f 79 07 3d 3b e3 89 bd fc 77 9c bb 3c 89 45 be
       0.033074614 -0.06732794 -0.0047750454 -0.19290632
0003f0 9d d8 b7 3d 60 69 a3 3d bd 9f fc bc 2e 88 07 3d
       0.089768626 0.07979083 -0.030837888 0.033088855

conv3.att_src f4 [1, 8, 8]
000000 ac 92 22 bf e8 57 aa be e9 dc 78 bf 60 20 7f be
       -0.63505054 -0.33270192 -0.9721208 -0.24914694
000010 11 4a 87 3e d9 13 8f bd 32 f1 c4 3e 98 fd 2d 3f
       0.26423696 -0.069862075 0.38465267 0.6796508
000020 a2 e8 8d be a0 0e 38 3e d6 e7 9a 3d 0b a5 e1 3e
       -0.27716547 0.17974329 0.075637504 0.4407123
000030 15 4e f6 3e e3 fd 81 be 09 c7 bd bd ae 35 74 3e
       0.48106447 -0.25389013 -0.092664786 0.23848602
000040 d3 e9 20 be 02 ca 8d 3d ca 94 3c 3e 88 52 2f 3d
       -0.15714197 0.069232956 0.18416134 0.042803317
000050 f3 7c 0e 3d b8 e5 9f 3e 07 a1 17 3e eb 98 b1 bd
       0.03478713 0.3122995 0.14807521 -0.08671745
000060 8f 1f 05 3f 7e 3b 91 3e a4 9e b2 3e 0e 08 d5 bd
       0.5200128 0.283657 0.34886658 -0.10401927
000070 f6 b5 2a 3e b0 69 49 be 12 09 e4 3e 7f f1 42 be
       0.16670975 -0.19669223 0.4453817 -0.19037436
000080 a1 91 3c 3f 5a af 1f bf 5a 2b 04 3e 9c 79 3e bf
       0.7365971 -0.6237694 0.12907162 -0.7440431
000090 b5 ce b0 3e a3 55 68 3f 6d 5f f0 3e 33 f4 5a bf
       0.34532705 0.9075567 0.46947804 -0.8552887
0000a0 ed a9 04 bf f8 e0 20 bf 75 b2 d7 be f9 fc c4 be
       -0.51821786 -0.62843275 -0.4212834 -0.38474253
0000b0 d9 b1 d2 3e e7 f8 cb be 46 e1 73 3e 3a 41 2b 3d
       0.41151312 -0.39838335 0.23816404 0.04181025
0000c0 8a 14 a6 be e5 b8 a4 3e 14 1d 02 3f 08 c0 8b 3e
       -0.32437545 0.32172313 0.5082562 0.27294946
0000d0 89 6b 94 3e ee c4 2d bf 86 a5 80 be c2 ad b5 bd
       0.28988293 -0.67878616 -0.25126284 -0.08871032
0000e0 30 4d 8b be 41 02 20 3f c4 cc 8d bf c0 fd b5 3e
       -0.27207327 0.6250344 -1.1078115 0.35545158
0000f0 92 0f 4c 3e 3f cb 59 be 2a dc 2e 3f 41 a6 7a 3e
       0.19927815 -0.21268938 0.68304694 0.24477483

conv3.att_dst f4 [1, 8, 8]
000000 d3 94 8b 3d 46 27 14 3f bc e4 6e bc 7a fe c4 3f
       0.06815495 0.57872427 -0.014580902 1.539016
000010 70 22 c1 3e 1d 95 78 3e 64 5a 0f bd f5 dd 4c bf
       0.37721586 0.24275632 -0.034998313 -0.8002618
000020 e6 2b e0 3e d5 41 41 bf e9 08 c6 be d0 72 88 be
       0.43783492 -0.75491077 -0.38678673 -0.26650095
000030 27 a3 65 3f 8b d9 ac bd 9a ac ab be 69 aa 85 3d
       0.89702076 -0.084399305 -0.33530122 0.06526644
000040 51 fe 57 3e 1e b1 97 3e 6d a5 18 be 0d 33 33 3f
       0.21093108 0.29627317 -0.14906855 0.6999977
000050 57 54 b1 be 5f 1a 0b 3f 05 2a b2 be 26 8f 46 be
       -0.3463466 0.54337114 -0.34797683 -0.19390544
000060 47 02 2d bf d8 af 40 bf 9b 98 58 be e5 53 56 3f
       -0.675816 -0.75268316 -0.21151964 0.8372176
000070 1a e6 55 bd ae c0 89 3d a7 0b 06 bf 2e eb 34 bf
       -0.052221395 0.06726204 -0.5236153 -0.70671356
000080 0f ff d8 3e 57 03 b2 bd b4 0f f9 be 08 ba 80 3d
       0.42382094 -0.08692043 -0.48644793 0.06285483
000090 e8 95 c7 be 2c ad fa bc 95 f6 2c bf ed de cb bf
       -0.38981557 -0.030600153 -0.67563754 -1.5927407
0000a0 07 29 31 bf a2 bf 26 3e a9 35 17 3f a8 b0 92 be
       -0.6920323 0.1628404 0.59066254 -0.28650403
0000b0 28 e6 cf be 01 34 70 bd 3d bf 55 3f 23 12 87 3e
       -0.40605283 -0.058643345 0.8349493 0.26381025
0000c0 8b 85 7e 3f 30 10 ee 3f 15 d4 bc 3f 99 53 41 bd
       0.9942252 1.859869 1.4752222 -0.047198866
0000d0 e0 2a 8f 3e ce d0 83 3e 51 7a 8e 3e fe a4 21 3e
       0.279624 0.25745243 0.27827695 0.15785596
0000e0 75 62 6b 3d c6 36 1e be 6b 30 c9 be 6b de 80 3e
       0.057466943 -0.15450582 -0.39294752 0.2516969
0000f0 5a f1 14 bf 01 3a bd 3e 1e d9 57 3e 34 e4 84 3f
       -0.58180773 0.36958316 0.21078917 1.0382142

conv3.bias f4 [64]
000000 8e 4c c8 3d 90 e4 a3 3d ea 03 e2 3d 95 1a 03 be
       0.09780227 0.08002579 0.11035903 -0.12803109
000010 5e b2 1d 3d 17 ea 26 3d bf b9 0d be f4 81 8f be
       0.038500182 0.04075059 -0.13840388 -0.28028834
000020 fc 77 5c bd 5e 6e 74 39 cb 99 3a 3e 27 09 35 3d
       -0.053825364 0.00023310768 0.1822273 0.04419818
000030 d3 ae b9 bd 92 ed 43 bc af 30 7f bd a2 34 7c 3d
       -0.09066548 -0.011958497 -0.062302288 0.061573632
000040 67 b2 14 3d 4e b9 ad 3d b7 d4 e6 bb 86 1c 07 be
       0.03630295 0.0848261 -0.0070444006 -0.13194475
000050 e8 79 ed bc fc 30 23 be 90 a0 93 3d 20 5a 00 be
       -0.028988793 -0.15936655 0.07208359 -0.1253438
000060 cd 1b 0f be 20 3d 52 be 9b 98 11 be da b2 ac 3d
       -0.13975449 -0.2053113 -0.1421837 0.08432551
000070 bd 65 42 bb a6 5b cb ba a8 d7 a9 bc b2 8a 2b be
       -0.0029662692 -0.0015514984 -0.020732716 -0.16752127
000080 3a e6 2b bd 3e 40 63 3d 32 05 ca bc b3 2c 4f 3c
       -0.041967608 0.055481188 -0.02466068 0.0126449345
000090 fc 26 f6 3c bf 95 23 be 58 9e 0a be 23 a9 dc bd
       0.030047886 -0.15975092 -0.13536966 -0.10774448
0000a0 b7 53 85 be 25 b5 53 be 54 7a 24 bd 03 20 4b 3e
       -0.26040432 -0.2067457 -0.040155724 0.1983643
0000b0 0a c6 32 3d 1d 73 24 3d df 3d 09 be 06 e6 9a bd
       0.043645896 0.040148843 -0.13402508 -0.07563405
0000c0 9a 1c 87 3c 2e 14 b7 be cf b2 bd bc 75 fc 03 bc
       0.01649313 -0.35757583 -0.023156552 -0.008055796
0000d0 49 ea 38 be fc 78 e4 3c 65 34 19 be 13 c0 0f be
       -0.18058123 0.027889721 -0.14961393 -0.14038114
0000e0 06 d8 00 3e 36 d7 c8 3c d3 c0 c6 3d 6f b7 37 3e
       0.12582406 0.024516683 0.09704747 0.17941068
0000f0 4a fd e1 bc 4f e4 7f 3d 00 e8 fe bd ee a1 4a 3d
       -0.027586598 0.06247359 -0.12446594 0.049470834
